2.2.1
----------------------------------------------------------------
        Layer (type)               Output Shape         Param #
================================================================
            Conv2d-1           [-1, 10, 64, 64]             280
              ReLU-2           [-1, 10, 64, 64]               0
            Conv2d-3           [-1, 10, 64, 64]             910
              ReLU-4           [-1, 10, 64, 64]               0
         MaxPool2d-5           [-1, 10, 32, 32]               0
            Conv2d-6           [-1, 10, 32, 32]             910
              ReLU-7           [-1, 10, 32, 32]               0
            Conv2d-8           [-1, 10, 32, 32]             910
              ReLU-9           [-1, 10, 32, 32]               0
        MaxPool2d-10           [-1, 10, 16, 16]               0
          Flatten-11                 [-1, 2560]               0
           Linear-12                   [-1, 10]          25,610
================================================================
Total params: 28,620
Trainable params: 28,620
Non-trainable params: 0
----------------------------------------------------------------
Input size (MB): 0.05
Forward/backward pass size (MB): 1.68
Params size (MB): 0.11
Estimated Total Size (MB): 1.84
----------------------------------------------------------------
Epoch 1/100, Train Loss: 2.3271, Val Loss: 2.3019
…
